…
59/59 - 20s - loss: 0.1802 - accuracy: 0.9419 - val_loss: 0.5057 - val_accuracy: 0.8185 - 20s/epoch - 345ms/step
[2K[2KTrial 18 Complete [00h 43m 19s]
val_loss: 0.4121580719947815

Best val_loss So Far: 0.4121580719947815
Total elapsed time: 08h 43m 37s
Model: "model"
_________________________________________________________________
 Layer (type)                Output Shape              Param #   
=================================================================
 input_1 (InputLayer)        [(None, 1024, 3)]         0         
                                                                 
 bidirectional (Bidirectiona  (None, 1024, 844)        1438176   
 l)                                                              
                                                                 
 batch_normalization (BatchN  (None, 1024, 844)        3376      
 ormalization)                                                   
                                                                 
 max_pooling1d (MaxPooling1D  (None, 512, 844)         0         
 )                                                               
                                                                 
 bidirectional_1 (Bidirectio  (None, 512, 904)         4689952   
 nal)                                                            
                                                                 
 batch_normalization_1 (Batc  (None, 512, 904)         3616      
 hNormalization)                                                 
                                                                 
 max_pooling1d_1 (MaxPooling  (None, 256, 904)         0         
 1D)                                                             
                                                                 
 dropout (Dropout)           (None, 256, 904)          0         
                                                                 
 bidirectional_2 (Bidirectio  (None, 256, 1524)        10162032  
 nal)                                                            
                                                                 
 batch_normalization_2 (Batc  (None, 256, 1524)        6096      
 hNormalization)                                                 
                                                                 
 max_pooling1d_2 (MaxPooling  (None, 128, 1524)        0         
 1D)                                                             
                                                                 
 dense (Dense)               (None, 128, 2)            3050      
                                                                 
 flatten (Flatten)           (None, 256)               0         
                                                                 
 dropout_1 (Dropout)         (None, 256)               0         
                                                                 
 dense_1 (Dense)             (None, 2)                 514       
                                                                 
=================================================================
Total params: 16,306,812
Trainable params: 16,300,268
Non-trainable params: 6,544
_________________________________________________________________
None
bilstm best parameters is {'layers_number': 3, 'units_0': 422, 'dropout_0': False, 'dense_unit_last': 2, 'dropout_last': True, 'lr': 1e-06, 'dropout_rate_0': 0.9, 'units_1': 452, 'dropout_1': True, 'dropout_rate_last': 0.1, 'dropout_rate_1': 0.1, 'units_2': 762, 'dropout_2': False, 'dropout_rate_2': 0.9}
…
