…
12/12 - 1s - loss: 0.3818 - accuracy: 0.8333 - val_loss: 0.3733 - val_accuracy: 0.8889 - 944ms/epoch - 79ms/step
[2K[2KTrial 18 Complete [00h 03m 04s]
val_loss: 0.5862830777963003

Best val_loss So Far: 0.5862830777963003
Total elapsed time: 00h 16m 46s
Model: "model"
_________________________________________________________________
 Layer (type)                Output Shape              Param #   
=================================================================
 input_1 (InputLayer)        [(None, 5120, 3)]         0         
                                                                 
 conv1d (Conv1D)             (None, 5120, 762)         35052     
                                                                 
 batch_normalization (BatchN  (None, 5120, 762)        3048      
 ormalization)                                                   
                                                                 
 re_lu (ReLU)                (None, 5120, 762)         0         
                                                                 
 max_pooling1d (MaxPooling1D  (None, 2560, 762)        0         
 )                                                               
                                                                 
 dropout (Dropout)           (None, 2560, 762)         0         
                                                                 
 conv1d_1 (Conv1D)           (None, 2560, 2)           1526      
                                                                 
 batch_normalization_1 (Batc  (None, 2560, 2)          8         
 hNormalization)                                                 
                                                                 
 re_lu_1 (ReLU)              (None, 2560, 2)           0         
                                                                 
 max_pooling1d_1 (MaxPooling  (None, 1280, 2)          0         
 1D)                                                             
                                                                 
 dropout_1 (Dropout)         (None, 1280, 2)           0         
                                                                 
 conv1d_2 (Conv1D)           (None, 1280, 2)           6         
                                                                 
 batch_normalization_2 (Batc  (None, 1280, 2)          8         
 hNormalization)                                                 
                                                                 
 re_lu_2 (ReLU)              (None, 1280, 2)           0         
                                                                 
 max_pooling1d_2 (MaxPooling  (None, 640, 2)           0         
 1D)                                                             
                                                                 
 dense (Dense)               (None, 640, 768)          2304      
                                                                 
 flatten (Flatten)           (None, 491520)            0         
                                                                 
 dense_1 (Dense)             (None, 2)                 983042    
                                                                 
=================================================================
Total params: 1,024,994
Trainable params: 1,023,462
Non-trainable params: 1,532
_________________________________________________________________
None
cnn_1d best parameters is {'num_layers': 3, 'units_0': 762, 'kernel_0': 15, 'dropout_0': True, 'dense_unit_last': 768, 'dropout_last': False, 'lr': 1e-06, 'dropout_rate0': 0.1, 'units_1': 2, 'kernel_1': 1, 'dropout_1': True, 'units_2': 2, 'kernel_2': 1, 'dropout_2': False, 'dropout_rate_last': 0.1, 'dropout_rate2': 0.9, 'dropout_rate1': 0.9}
…
