…
30/30 - 6s - loss: 0.2178 - accuracy: 0.9172 - val_loss: 0.9488 - val_accuracy: 0.7630 - 6s/epoch - 210ms/step
[2K[2KTrial 18 Complete [00h 08m 44s]
val_loss: 0.37542717655499774

Best val_loss So Far: 0.34803177913029987
Total elapsed time: 05h 31m 21s
Model: "model"
_________________________________________________________________
 Layer (type)                Output Shape              Param #   
=================================================================
 input_1 (InputLayer)        [(None, 2048, 3)]         0         
                                                                 
 conv1d (Conv1D)             (None, 2048, 762)         35052     
                                                                 
 batch_normalization (BatchN  (None, 2048, 762)        3048      
 ormalization)                                                   
                                                                 
 re_lu (ReLU)                (None, 2048, 762)         0         
                                                                 
 max_pooling1d (MaxPooling1D  (None, 1024, 762)        0         
 )                                                               
                                                                 
 conv1d_1 (Conv1D)           (None, 1024, 762)         581406    
                                                                 
 batch_normalization_1 (Batc  (None, 1024, 762)        3048      
 hNormalization)                                                 
                                                                 
 re_lu_1 (ReLU)              (None, 1024, 762)         0         
                                                                 
 max_pooling1d_1 (MaxPooling  (None, 512, 762)         0         
 1D)                                                             
                                                                 
 conv1d_2 (Conv1D)           (None, 512, 2)            1526      
                                                                 
 batch_normalization_2 (Batc  (None, 512, 2)           8         
 hNormalization)                                                 
                                                                 
 re_lu_2 (ReLU)              (None, 512, 2)            0         
                                                                 
 max_pooling1d_2 (MaxPooling  (None, 256, 2)           0         
 1D)                                                             
                                                                 
 dropout (Dropout)           (None, 256, 2)            0         
                                                                 
 dense (Dense)               (None, 256, 196)          588       
                                                                 
 flatten (Flatten)           (None, 50176)             0         
                                                                 
 dense_1 (Dense)             (None, 2)                 100354    
                                                                 
=================================================================
Total params: 725,030
Trainable params: 721,978
Non-trainable params: 3,052
_________________________________________________________________
None
cnn_1d best parameters is {'num_layers': 3, 'units_0': 762, 'kernel_0': 15, 'dropout_0': False, 'dense_unit_last': 196, 'dropout_last': False, 'lr': 1e-06, 'dropout_rate0': 0.7000000000000001, 'units_1': 762, 'kernel_1': 1, 'dropout_1': False, 'dropout_rate_last': 0.1, 'units_2': 2, 'kernel_2': 1, 'dropout_2': True, 'dropout_rate2': 0.8}
…
