…
59/59 - 1s - loss: 0.3773 - accuracy: 0.9602 - val_loss: 8.8680 - val_accuracy: 0.6852 - 1s/epoch - 17ms/step
[2K[2KTrial 18 Complete [00h 01m 13s]
val_loss: 2.2188791036605835

Best val_loss So Far: 0.3072642733653386
Total elapsed time: 00h 50m 55s
Model: "model"
_________________________________________________________________
 Layer (type)                Output Shape              Param #   
=================================================================
 input_1 (InputLayer)        [(None, 1024, 3)]         0         
                                                                 
 conv1d (Conv1D)             (None, 1024, 242)         11132     
                                                                 
 batch_normalization (BatchN  (None, 1024, 242)        968       
 ormalization)                                                   
                                                                 
 re_lu (ReLU)                (None, 1024, 242)         0         
                                                                 
 max_pooling1d (MaxPooling1D  (None, 512, 242)         0         
 )                                                               
                                                                 
 conv1d_1 (Conv1D)           (None, 512, 2)            2422      
                                                                 
 batch_normalization_1 (Batc  (None, 512, 2)           8         
 hNormalization)                                                 
                                                                 
 re_lu_1 (ReLU)              (None, 512, 2)            0         
                                                                 
 max_pooling1d_1 (MaxPooling  (None, 256, 2)           0         
 1D)                                                             
                                                                 
 dense (Dense)               (None, 256, 352)          1056      
                                                                 
 flatten (Flatten)           (None, 90112)             0         
                                                                 
 dense_1 (Dense)             (None, 2)                 180226    
                                                                 
=================================================================
Total params: 195,812
Trainable params: 195,324
Non-trainable params: 488
_________________________________________________________________
None
cnn_1d best parameters is {'num_layers': 2, 'units_0': 242, 'kernel_0': 15, 'dropout_0': False, 'dense_unit_last': 352, 'dropout_last': False, 'lr': 7.0488575617734e-05, 'dropout_rate_last': 0.7000000000000001, 'units_1': 2, 'kernel_1': 5, 'dropout_1': False, 'dropout_rate0': 0.1, 'dropout_rate1': 0.1, 'units_2': 252, 'kernel_2': 1, 'dropout_2': False}
…
