…
117/117 - 1s - loss: 6.7234 - accuracy: 0.7032 - val_loss: 5.0187 - val_accuracy: 0.6759 - 1s/epoch - 12ms/step
[2K[2KTrial 18 Complete [00h 01m 50s]
val_loss: 1.6027541955312092

Best val_loss So Far: 0.34577510754267377
Total elapsed time: 00h 43m 43s
Model: "model"
_________________________________________________________________
 Layer (type)                Output Shape              Param #   
=================================================================
 input_1 (InputLayer)        [(None, 512, 3)]          0         
                                                                 
 conv1d (Conv1D)             (None, 512, 662)          6620      
                                                                 
 batch_normalization (BatchN  (None, 512, 662)         2648      
 ormalization)                                                   
                                                                 
 re_lu (ReLU)                (None, 512, 662)          0         
                                                                 
 max_pooling1d (MaxPooling1D  (None, 256, 662)         0         
 )                                                               
                                                                 
 conv1d_1 (Conv1D)           (None, 256, 2)            1326      
                                                                 
 batch_normalization_1 (Batc  (None, 256, 2)           8         
 hNormalization)                                                 
                                                                 
 re_lu_1 (ReLU)              (None, 256, 2)            0         
                                                                 
 max_pooling1d_1 (MaxPooling  (None, 128, 2)           0         
 1D)                                                             
                                                                 
 conv1d_2 (Conv1D)           (None, 128, 2)            6         
                                                                 
 batch_normalization_2 (Batc  (None, 128, 2)           8         
 hNormalization)                                                 
                                                                 
 re_lu_2 (ReLU)              (None, 128, 2)            0         
                                                                 
 max_pooling1d_2 (MaxPooling  (None, 64, 2)            0         
 1D)                                                             
                                                                 
 dense (Dense)               (None, 64, 768)           2304      
                                                                 
 flatten (Flatten)           (None, 49152)             0         
                                                                 
 dropout (Dropout)           (None, 49152)             0         
                                                                 
 dense_1 (Dense)             (None, 2)                 98306     
                                                                 
=================================================================
Total params: 111,226
Trainable params: 109,894
Non-trainable params: 1,332
_________________________________________________________________
None
cnn_1d best parameters is {'num_layers': 3, 'units_0': 662, 'kernel_0': 3, 'dropout_0': False, 'dense_unit_last': 768, 'dropout_last': True, 'lr': 1.0900462234944213e-05, 'dropout_rate_last': 0.9, 'units_1': 2, 'kernel_1': 1, 'dropout_1': False, 'dropout_rate0': 0.9, 'dropout_rate1': 0.1, 'units_2': 2, 'kernel_2': 1, 'dropout_2': False, 'dropout_rate2': 0.1}
…
