…
233/233 - 1s - loss: 0.3138 - accuracy: 0.8716 - val_loss: 0.4210 - val_accuracy: 0.8176 - 1s/epoch - 5ms/step
[2K[2KTrial 18 Complete [00h 08m 50s]
val_loss: 0.42574076851209003

Best val_loss So Far: 0.38056299090385437
Total elapsed time: 01h 22m 33s
Model: "model"
_________________________________________________________________
 Layer (type)                Output Shape              Param #   
=================================================================
 input_1 (InputLayer)        [(None, 256, 3)]          0         
                                                                 
 conv1d (Conv1D)             (None, 256, 172)          7912      
                                                                 
 batch_normalization (BatchN  (None, 256, 172)         688       
 ormalization)                                                   
                                                                 
 re_lu (ReLU)                (None, 256, 172)          0         
                                                                 
 max_pooling1d (MaxPooling1D  (None, 128, 172)         0         
 )                                                               
                                                                 
 conv1d_1 (Conv1D)           (None, 128, 2)            346       
                                                                 
 batch_normalization_1 (Batc  (None, 128, 2)           8         
 hNormalization)                                                 
                                                                 
 re_lu_1 (ReLU)              (None, 128, 2)            0         
                                                                 
 max_pooling1d_1 (MaxPooling  (None, 64, 2)            0         
 1D)                                                             
                                                                 
 dense (Dense)               (None, 64, 316)           948       
                                                                 
 flatten (Flatten)           (None, 20224)             0         
                                                                 
 dense_1 (Dense)             (None, 2)                 40450     
                                                                 
=================================================================
Total params: 50,352
Trainable params: 50,004
Non-trainable params: 348
_________________________________________________________________
None
cnn_1d best parameters is {'num_layers': 2, 'units_0': 172, 'kernel_0': 15, 'dropout_0': False, 'dense_unit_last': 316, 'dropout_last': False, 'lr': 1.777082022288254e-05, 'dropout_rate_last': 0.7000000000000001, 'units_1': 2, 'kernel_1': 1, 'dropout_1': False}
…
