…
465/465 - 4s - loss: 0.1168 - accuracy: 0.9540 - val_loss: 0.4383 - val_accuracy: 0.8681 - 4s/epoch - 8ms/step
[2K[2KTrial 18 Complete [00h 05m 47s]
val_loss: 0.3678930699825287

Best val_loss So Far: 0.2845805883407593
Total elapsed time: 02h 39m 33s
Model: "model"
_________________________________________________________________
 Layer (type)                Output Shape              Param #   
=================================================================
 input_1 (InputLayer)        [(None, 128, 3)]          0         
                                                                 
 conv1d (Conv1D)             (None, 128, 2)            92        
                                                                 
 batch_normalization (BatchN  (None, 128, 2)           8         
 ormalization)                                                   
                                                                 
 re_lu (ReLU)                (None, 128, 2)            0         
                                                                 
 max_pooling1d (MaxPooling1D  (None, 64, 2)            0         
 )                                                               
                                                                 
 dropout (Dropout)           (None, 64, 2)             0         
                                                                 
 conv1d_1 (Conv1D)           (None, 64, 272)           8432      
                                                                 
 batch_normalization_1 (Batc  (None, 64, 272)          1088      
 hNormalization)                                                 
                                                                 
 re_lu_1 (ReLU)              (None, 64, 272)           0         
                                                                 
 max_pooling1d_1 (MaxPooling  (None, 32, 272)          0         
 1D)                                                             
                                                                 
 dropout_1 (Dropout)         (None, 32, 272)           0         
                                                                 
 conv1d_2 (Conv1D)           (None, 32, 422)           115206    
                                                                 
 batch_normalization_2 (Batc  (None, 32, 422)          1688      
 hNormalization)                                                 
                                                                 
 re_lu_2 (ReLU)              (None, 32, 422)           0         
                                                                 
 max_pooling1d_2 (MaxPooling  (None, 16, 422)          0         
 1D)                                                             
                                                                 
 dropout_2 (Dropout)         (None, 16, 422)           0         
                                                                 
 dense (Dense)               (None, 16, 2)             846       
                                                                 
 flatten (Flatten)           (None, 32)                0         
                                                                 
 dense_1 (Dense)             (None, 2)                 66        
                                                                 
=================================================================
Total params: 127,426
Trainable params: 126,034
Non-trainable params: 1,392
_________________________________________________________________
None
cnn_1d best parameters is {'num_layers': 3, 'units_0': 2, 'kernel_0': 15, 'dropout_0': True, 'dense_unit_last': 2, 'dropout_last': False, 'lr': 0.01, 'dropout_rate_last': 0.9, 'units_1': 272, 'kernel_1': 15, 'dropout_1': True, 'dropout_rate0': 0.2, 'units_2': 422, 'kernel_2': 1, 'dropout_2': True, 'dropout_rate1': 0.5, 'dropout_rate2': 0.1}
…
