…
30/30 - 7s - loss: 0.0165 - accuracy: 1.0000 - val_loss: 1.1925 - val_accuracy: 0.6222 - 7s/epoch - 245ms/step
[2K[2KTrial 18 Complete [00h 10m 32s]
val_loss: 0.6595481634140015

Best val_loss So Far: 0.3079475661118825
Total elapsed time: 05h 49m 30s
Model: "model"
_________________________________________________________________
 Layer (type)                Output Shape              Param #   
=================================================================
 input_1 (InputLayer)        [(None, 2048, 3)]         0         
                                                                 
 gru (GRU)                   (None, 2048, 762)         1753362   
                                                                 
 batch_normalization (BatchN  (None, 2048, 762)        3048      
 ormalization)                                                   
                                                                 
 re_lu (ReLU)                (None, 2048, 762)         0         
                                                                 
 max_pooling1d (MaxPooling1D  (None, 1024, 762)        0         
 )                                                               
                                                                 
 gru_1 (GRU)                 (None, 1024, 762)         3488436   
                                                                 
 batch_normalization_1 (Batc  (None, 1024, 762)        3048      
 hNormalization)                                                 
                                                                 
 re_lu_1 (ReLU)              (None, 1024, 762)         0         
                                                                 
 max_pooling1d_1 (MaxPooling  (None, 512, 762)         0         
 1D)                                                             
                                                                 
 dropout (Dropout)           (None, 512, 762)          0         
                                                                 
 gru_2 (GRU)                 (None, 512, 2)            4596      
                                                                 
 batch_normalization_2 (Batc  (None, 512, 2)           8         
 hNormalization)                                                 
                                                                 
 re_lu_2 (ReLU)              (None, 512, 2)            0         
                                                                 
 max_pooling1d_2 (MaxPooling  (None, 256, 2)           0         
 1D)                                                             
                                                                 
 dropout_1 (Dropout)         (None, 256, 2)            0         
                                                                 
 dense (Dense)               (None, 256, 768)          2304      
                                                                 
 flatten (Flatten)           (None, 196608)            0         
                                                                 
 dense_1 (Dense)             (None, 2)                 393218    
                                                                 
=================================================================
Total params: 5,648,020
Trainable params: 5,644,968
Non-trainable params: 3,052
_________________________________________________________________
None
GRU best parameters is {'num_layers': 3, 'units_0': 762, 'dropout_0': False, 'dense_unit_last': 768, 'dropout_last': False, 'lr': 1e-05, 'dropout_rate_last': 0.1, 'dropout_rate0': 0.1, 'units_1': 762, 'dropout_1': True, 'dropout_rate1': 0.1, 'units_2': 2, 'dropout_2': True, 'dropout_rate2': 0.1}
…
