…
12/12 - 10s - loss: 0.1197 - accuracy: 0.9597 - val_loss: 0.7290 - val_accuracy: 0.7963 - 10s/epoch - 842ms/step
[2K[2KTrial 18 Complete [00h 21m 37s]
val_loss: 0.625726600488027

Best val_loss So Far: 0.43025829394658405
Total elapsed time: 06h 13m 32s
Model: "model"
_________________________________________________________________
 Layer (type)                Output Shape              Param #   
=================================================================
 input_1 (InputLayer)        [(None, 5120, 3)]         0         
                                                                 
 gru (GRU)                   (None, 5120, 762)         1753362   
                                                                 
 batch_normalization (BatchN  (None, 5120, 762)        3048      
 ormalization)                                                   
                                                                 
 re_lu (ReLU)                (None, 5120, 762)         0         
                                                                 
 max_pooling1d (MaxPooling1D  (None, 2560, 762)        0         
 )                                                               
                                                                 
 gru_1 (GRU)                 (None, 2560, 382)         1313316   
                                                                 
 batch_normalization_1 (Batc  (None, 2560, 382)        1528      
 hNormalization)                                                 
                                                                 
 re_lu_1 (ReLU)              (None, 2560, 382)         0         
                                                                 
 max_pooling1d_1 (MaxPooling  (None, 1280, 382)        0         
 1D)                                                             
                                                                 
 gru_2 (GRU)                 (None, 1280, 592)         1733376   
                                                                 
 batch_normalization_2 (Batc  (None, 1280, 592)        2368      
 hNormalization)                                                 
                                                                 
 re_lu_2 (ReLU)              (None, 1280, 592)         0         
                                                                 
 max_pooling1d_2 (MaxPooling  (None, 640, 592)         0         
 1D)                                                             
                                                                 
 dense (Dense)               (None, 640, 768)          455424    
                                                                 
 flatten (Flatten)           (None, 491520)            0         
                                                                 
 dropout (Dropout)           (None, 491520)            0         
                                                                 
 dense_1 (Dense)             (None, 2)                 983042    
                                                                 
=================================================================
Total params: 6,245,464
Trainable params: 6,241,992
Non-trainable params: 3,472
_________________________________________________________________
None
GRU best parameters is {'num_layers': 3, 'units_0': 762, 'dropout_0': False, 'dense_unit_last': 768, 'dropout_last': True, 'lr': 1e-05, 'dropout_rate_last': 0.9, 'dropout_rate0': 0.1, 'units_1': 382, 'dropout_1': False, 'units_2': 592, 'dropout_2': False, 'dropout_rate1': 0.1, 'dropout_rate2': 0.1}
…
