…
59/59 - 7s - loss: 0.0128 - accuracy: 0.9952 - val_loss: 0.5843 - val_accuracy: 0.8333 - 7s/epoch - 115ms/step
[2K[2KTrial 18 Complete [00h 10m 06s]
val_loss: 0.28987879554430646

Best val_loss So Far: 0.2888767371575038
Total elapsed time: 04h 07m 21s
Model: "model"
_________________________________________________________________
 Layer (type)                Output Shape              Param #   
=================================================================
 input_1 (InputLayer)        [(None, 1024, 3)]         0         
                                                                 
 gru (GRU)                   (None, 1024, 662)         1324662   
                                                                 
 batch_normalization (BatchN  (None, 1024, 662)        2648      
 ormalization)                                                   
                                                                 
 re_lu (ReLU)                (None, 1024, 662)         0         
                                                                 
 max_pooling1d (MaxPooling1D  (None, 512, 662)         0         
 )                                                               
                                                                 
 gru_1 (GRU)                 (None, 512, 112)          260736    
                                                                 
 batch_normalization_1 (Batc  (None, 512, 112)         448       
 hNormalization)                                                 
                                                                 
 re_lu_1 (ReLU)              (None, 512, 112)          0         
                                                                 
 max_pooling1d_1 (MaxPooling  (None, 256, 112)         0         
 1D)                                                             
                                                                 
 gru_2 (GRU)                 (None, 256, 522)          995976    
                                                                 
 batch_normalization_2 (Batc  (None, 256, 522)         2088      
 hNormalization)                                                 
                                                                 
 re_lu_2 (ReLU)              (None, 256, 522)          0         
                                                                 
 max_pooling1d_2 (MaxPooling  (None, 128, 522)         0         
 1D)                                                             
                                                                 
 dense (Dense)               (None, 128, 40)           20920     
                                                                 
 flatten (Flatten)           (None, 5120)              0         
                                                                 
 dropout (Dropout)           (None, 5120)              0         
                                                                 
 dense_1 (Dense)             (None, 2)                 10242     
                                                                 
=================================================================
Total params: 2,617,720
Trainable params: 2,615,128
Non-trainable params: 2,592
_________________________________________________________________
None
GRU best parameters is {'num_layers': 3, 'units_0': 662, 'dropout_0': False, 'dense_unit_last': 40, 'dropout_last': True, 'lr': 0.0005463063812883169, 'dropout_rate0': 0.8, 'units_1': 112, 'dropout_1': False, 'dropout_rate_last': 0.6, 'units_2': 522, 'dropout_2': False}
…
