…
117/117 - 9s - loss: 0.0228 - accuracy: 0.9898 - val_loss: 0.5175 - val_accuracy: 0.9130 - 9s/epoch - 79ms/step
[2K[2KTrial 18 Complete [00h 11m 16s]
val_loss: 0.33696505427360535

Best val_loss So Far: 0.32708309094111127
Total elapsed time: 04h 57m 51s
Model: "model"
_________________________________________________________________
 Layer (type)                Output Shape              Param #   
=================================================================
 input_1 (InputLayer)        [(None, 512, 3)]          0         
                                                                 
 gru (GRU)                   (None, 512, 612)          1132812   
                                                                 
 batch_normalization (BatchN  (None, 512, 612)         2448      
 ormalization)                                                   
                                                                 
 re_lu (ReLU)                (None, 512, 612)          0         
                                                                 
 max_pooling1d (MaxPooling1D  (None, 256, 612)         0         
 )                                                               
                                                                 
 gru_1 (GRU)                 (None, 256, 372)          1100376   
                                                                 
 batch_normalization_1 (Batc  (None, 256, 372)         1488      
 hNormalization)                                                 
                                                                 
 re_lu_1 (ReLU)              (None, 256, 372)          0         
                                                                 
 max_pooling1d_1 (MaxPooling  (None, 128, 372)         0         
 1D)                                                             
                                                                 
 dense (Dense)               (None, 128, 120)          44760     
                                                                 
 flatten (Flatten)           (None, 15360)             0         
                                                                 
 dense_1 (Dense)             (None, 2)                 30722     
                                                                 
=================================================================
Total params: 2,312,606
Trainable params: 2,310,638
Non-trainable params: 1,968
_________________________________________________________________
None
GRU best parameters is {'num_layers': 2, 'units_0': 612, 'dropout_0': False, 'dense_unit_last': 120, 'dropout_last': False, 'lr': 0.0005048686493058294, 'dropout_rate0': 0.30000000000000004, 'units_1': 372, 'dropout_1': False, 'dropout_rate_last': 0.2, 'dropout_rate1': 0.30000000000000004, 'units_2': 322, 'dropout_2': True}
…
