…
233/233 - 10s - loss: 0.2527 - accuracy: 0.8931 - val_loss: 0.4250 - val_accuracy: 0.8176 - 10s/epoch - 43ms/step
[2K[2KTrial 18 Complete [00h 13m 01s]
val_loss: 0.3502700428167979

Best val_loss So Far: 0.31242696444193524
Total elapsed time: 03h 44m 11s
Model: "model"
_________________________________________________________________
 Layer (type)                Output Shape              Param #   
=================================================================
 input_1 (InputLayer)        [(None, 256, 3)]          0         
                                                                 
 gru (GRU)                   (None, 256, 362)          398562    
                                                                 
 batch_normalization (BatchN  (None, 256, 362)         1448      
 ormalization)                                                   
                                                                 
 re_lu (ReLU)                (None, 256, 362)          0         
                                                                 
 max_pooling1d (MaxPooling1D  (None, 128, 362)         0         
 )                                                               
                                                                 
 dropout (Dropout)           (None, 128, 362)          0         
                                                                 
 gru_1 (GRU)                 (None, 128, 2)            2196      
                                                                 
 batch_normalization_1 (Batc  (None, 128, 2)           8         
 hNormalization)                                                 
                                                                 
 re_lu_1 (ReLU)              (None, 128, 2)            0         
                                                                 
 max_pooling1d_1 (MaxPooling  (None, 64, 2)            0         
 1D)                                                             
                                                                 
 gru_2 (GRU)                 (None, 64, 202)           124836    
                                                                 
 batch_normalization_2 (Batc  (None, 64, 202)          808       
 hNormalization)                                                 
                                                                 
 re_lu_2 (ReLU)              (None, 64, 202)           0         
                                                                 
 max_pooling1d_2 (MaxPooling  (None, 32, 202)          0         
 1D)                                                             
                                                                 
 dropout_1 (Dropout)         (None, 32, 202)           0         
                                                                 
 dense (Dense)               (None, 32, 768)           155904    
                                                                 
 flatten (Flatten)           (None, 24576)             0         
                                                                 
 dense_1 (Dense)             (None, 2)                 49154     
                                                                 
=================================================================
Total params: 732,916
Trainable params: 731,784
Non-trainable params: 1,132
_________________________________________________________________
None
GRU best parameters is {'num_layers': 3, 'units_0': 362, 'dropout_0': True, 'dense_unit_last': 768, 'dropout_last': False, 'lr': 1e-05, 'dropout_rate0': 0.1, 'dropout_rate_last': 0.1, 'units_1': 2, 'dropout_1': False, 'units_2': 202, 'dropout_2': True, 'dropout_rate1': 0.8, 'dropout_rate2': 0.2}
…
