…
465/465 - 9s - loss: 0.3674 - accuracy: 0.8361 - val_loss: 0.3853 - val_accuracy: 0.8551 - 9s/epoch - 19ms/step
[2K[2KTrial 18 Complete [00h 20m 13s]
val_loss: 0.3553062081336975

Best val_loss So Far: 0.2819709579149882
Total elapsed time: 05h 28m 20s
Model: "model"
_________________________________________________________________
 Layer (type)                Output Shape              Param #   
=================================================================
 input_1 (InputLayer)        [(None, 128, 3)]          0         
                                                                 
 gru (GRU)                   (None, 128, 762)          1753362   
                                                                 
 batch_normalization (BatchN  (None, 128, 762)         3048      
 ormalization)                                                   
                                                                 
 re_lu (ReLU)                (None, 128, 762)          0         
                                                                 
 max_pooling1d (MaxPooling1D  (None, 64, 762)          0         
 )                                                               
                                                                 
 dropout (Dropout)           (None, 64, 762)           0         
                                                                 
 dense (Dense)               (None, 64, 2)             1526      
                                                                 
 flatten (Flatten)           (None, 128)               0         
                                                                 
 dense_1 (Dense)             (None, 2)                 258       
                                                                 
=================================================================
Total params: 1,758,194
Trainable params: 1,756,670
Non-trainable params: 1,524
_________________________________________________________________
None
GRU best parameters is {'num_layers': 1, 'units_0': 762, 'dropout_0': True, 'dense_unit_last': 2, 'dropout_last': False, 'lr': 0.01, 'dropout_rate0': 0.6, 'units_1': 2, 'dropout_1': True, 'dropout_rate_last': 0.1}
…
