…
233/233 - 5s - loss: 0.8417 - accuracy: 0.4968 - val_loss: 0.7698 - val_accuracy: 0.5407 - 5s/epoch - 23ms/step
[2K[2KTrial 18 Complete [00h 17m 00s]
val_loss: 0.6583919723828634

Best val_loss So Far: 0.2792348364988963
Total elapsed time: 01h 41m 27s
Model: "model"
_________________________________________________________________
 Layer (type)                Output Shape              Param #   
=================================================================
 input_1 (InputLayer)        [(None, 256, 3)]          0         
                                                                 
 conv1d (Conv1D)             (None, 256, 2)            92        
                                                                 
 batch_normalization (BatchN  (None, 256, 2)           8         
 ormalization)                                                   
                                                                 
 re_lu (ReLU)                (None, 256, 2)            0         
                                                                 
 max_pooling1d (MaxPooling1D  (None, 128, 2)           0         
 )                                                               
                                                                 
 conv1d_1 (Conv1D)           (None, 128, 2)            6         
                                                                 
 batch_normalization_1 (Batc  (None, 128, 2)           8         
 hNormalization)                                                 
                                                                 
 re_lu_1 (ReLU)              (None, 128, 2)            0         
                                                                 
 max_pooling1d_1 (MaxPooling  (None, 64, 2)            0         
 1D)                                                             
                                                                 
 dropout (Dropout)           (None, 64, 2)             0         
                                                                 
 conv1d_2 (Conv1D)           (None, 64, 422)           6330      
                                                                 
 batch_normalization_2 (Batc  (None, 64, 422)          1688      
 hNormalization)                                                 
                                                                 
 re_lu_2 (ReLU)              (None, 64, 422)           0         
                                                                 
 max_pooling1d_2 (MaxPooling  (None, 32, 422)          0         
 1D)                                                             
                                                                 
 dense (Dense)               (None, 32, 2)             846       
                                                                 
 flatten (Flatten)           (None, 64)                0         
                                                                 
 dense_1 (Dense)             (None, 2)                 130       
                                                                 
=================================================================
Total params: 9,108
Trainable params: 8,256
Non-trainable params: 852
_________________________________________________________________
None
cnn_1d best parameters is {'num_layers': 3, 'units_0': 2, 'kernel_0': 15, 'dropout_0': False, 'dense_unit_last': 2, 'dropout_last': False, 'lr': 0.01, 'dropout_rate_last': 0.9, 'units_1': 2, 'kernel_1': 1, 'dropout_1': True, 'units_2': 422, 'kernel_2': 7, 'dropout_2': False, 'dropout_rate1': 0.1}
