…
117/117 - 2s - loss: 0.2767 - accuracy: 0.8892 - val_loss: 1.1888 - val_accuracy: 0.5352 - 2s/epoch - 19ms/step
[2K[2KTrial 18 Complete [00h 04m 36s]
val_loss: 0.5001736680666605

Best val_loss So Far: 0.27804280320803326
Total elapsed time: 01h 03m 59s
Model: "model"
_________________________________________________________________
 Layer (type)                Output Shape              Param #   
=================================================================
 input_1 (InputLayer)        [(None, 512, 3)]          0         
                                                                 
 conv1d (Conv1D)             (None, 512, 2)            92        
                                                                 
 batch_normalization (BatchN  (None, 512, 2)           8         
 ormalization)                                                   
                                                                 
 re_lu (ReLU)                (None, 512, 2)            0         
                                                                 
 max_pooling1d (MaxPooling1D  (None, 256, 2)           0         
 )                                                               
                                                                 
 dropout (Dropout)           (None, 256, 2)            0         
                                                                 
 conv1d_1 (Conv1D)           (None, 256, 2)            6         
                                                                 
 batch_normalization_1 (Batc  (None, 256, 2)           8         
 hNormalization)                                                 
                                                                 
 re_lu_1 (ReLU)              (None, 256, 2)            0         
                                                                 
 max_pooling1d_1 (MaxPooling  (None, 128, 2)           0         
 1D)                                                             
                                                                 
 conv1d_2 (Conv1D)           (None, 128, 2)            6         
                                                                 
 batch_normalization_2 (Batc  (None, 128, 2)           8         
 hNormalization)                                                 
                                                                 
 re_lu_2 (ReLU)              (None, 128, 2)            0         
                                                                 
 max_pooling1d_2 (MaxPooling  (None, 64, 2)            0         
 1D)                                                             
                                                                 
 dense (Dense)               (None, 64, 2)             6         
                                                                 
 flatten (Flatten)           (None, 128)               0         
                                                                 
 dense_1 (Dense)             (None, 2)                 258       
                                                                 
=================================================================
Total params: 392
Trainable params: 380
Non-trainable params: 12
_________________________________________________________________
None
cnn_1d best parameters is {'num_layers': 3, 'units_0': 2, 'kernel_0': 15, 'dropout_0': True, 'dense_unit_last': 2, 'dropout_last': False, 'lr': 0.01, 'dropout_rate_last': 0.30000000000000004, 'units_1': 2, 'kernel_1': 1, 'dropout_1': False, 'units_2': 2, 'kernel_2': 1, 'dropout_2': False, 'dropout_rate0': 0.1, 'dropout_rate1': 0.1, 'dropout_rate2': 0.9}
…
