…
30/30 - 18s - loss: 2.0842 - accuracy: 0.5032 - val_loss: 0.9103 - val_accuracy: 0.5259 - 18s/epoch - 599ms/step
[2K[2KTrial 18 Complete [00h 41m 12s]
val_loss: 0.6157374978065491

Best val_loss So Far: 0.24714288115501404
Total elapsed time: 07h 11m 27s
Model: "model"
_________________________________________________________________
 Layer (type)                Output Shape              Param #   
=================================================================
 input_1 (InputLayer)        [(None, 2048, 3)]         0         
                                                                 
 conv1d (Conv1D)             (None, 2048, 762)         3048      
                                                                 
 batch_normalization (BatchN  (None, 2048, 762)        3048      
 ormalization)                                                   
                                                                 
 re_lu (ReLU)                (None, 2048, 762)         0         
                                                                 
 max_pooling1d (MaxPooling1D  (None, 1024, 762)        0         
 )                                                               
                                                                 
 dropout (Dropout)           (None, 1024, 762)         0         
                                                                 
 conv1d_1 (Conv1D)           (None, 1024, 762)         4065270   
                                                                 
 batch_normalization_1 (Batc  (None, 1024, 762)        3048      
 hNormalization)                                                 
                                                                 
 re_lu_1 (ReLU)              (None, 1024, 762)         0         
                                                                 
 max_pooling1d_1 (MaxPooling  (None, 512, 762)         0         
 1D)                                                             
                                                                 
 dropout_1 (Dropout)         (None, 512, 762)          0         
                                                                 
 conv1d_2 (Conv1D)           (None, 512, 132)          100716    
                                                                 
 batch_normalization_2 (Batc  (None, 512, 132)         528       
 hNormalization)                                                 
                                                                 
 re_lu_2 (ReLU)              (None, 512, 132)          0         
                                                                 
 max_pooling1d_2 (MaxPooling  (None, 256, 132)         0         
 1D)                                                             
                                                                 
 dropout_2 (Dropout)         (None, 256, 132)          0         
                                                                 
 dense (Dense)               (None, 256, 2)            266       
                                                                 
 flatten (Flatten)           (None, 512)               0         
                                                                 
 dropout_3 (Dropout)         (None, 512)               0         
                                                                 
 dense_1 (Dense)             (None, 2)                 1026      
                                                                 
=================================================================
Total params: 4,176,950
Trainable params: 4,173,638
Non-trainable params: 3,312
_________________________________________________________________
None
cnn_1d best parameters is {'num_layers': 3, 'units_0': 762, 'kernel_0': 1, 'dropout_0': True, 'dense_unit_last': 2, 'dropout_last': True, 'lr': 0.01, 'dropout_rate0': 0.9, 'units_1': 762, 'kernel_1': 7, 'dropout_1': True, 'dropout_rate_last': 0.9, 'units_2': 132, 'kernel_2': 1, 'dropout_2': True, 'dropout_rate2': 0.7000000000000001, 'dropout_rate1': 0.1}
…
