…
12/12 - 16s - loss: 0.0443 - accuracy: 1.0000 - val_loss: 0.5120 - val_accuracy: 0.7963 - 16s/epoch - 1s/step
[2K[2KTrial 18 Complete [00h 51m 31s]
val_loss: 0.5306085248788198

Best val_loss So Far: 0.5306085248788198
Total elapsed time: 02h 24m 44s
Model: "model"
_________________________________________________________________
 Layer (type)                Output Shape              Param #   
=================================================================
 input_1 (InputLayer)        [(None, 5120, 3)]         0         
                                                                 
 conv1d (Conv1D)             (None, 5120, 762)         3048      
                                                                 
 batch_normalization (BatchN  (None, 5120, 762)        3048      
 ormalization)                                                   
                                                                 
 re_lu (ReLU)                (None, 5120, 762)         0         
                                                                 
 max_pooling1d (MaxPooling1D  (None, 2560, 762)        0         
 )                                                               
                                                                 
 conv1d_1 (Conv1D)           (None, 2560, 512)         5852672   
                                                                 
 batch_normalization_1 (Batc  (None, 2560, 512)        2048      
 hNormalization)                                                 
                                                                 
 re_lu_1 (ReLU)              (None, 2560, 512)         0         
                                                                 
 max_pooling1d_1 (MaxPooling  (None, 1280, 512)        0         
 1D)                                                             
                                                                 
 dropout (Dropout)           (None, 1280, 512)         0         
                                                                 
 conv1d_2 (Conv1D)           (None, 1280, 532)         272916    
                                                                 
 batch_normalization_2 (Batc  (None, 1280, 532)        2128      
 hNormalization)                                                 
                                                                 
 re_lu_2 (ReLU)              (None, 1280, 532)         0         
                                                                 
 max_pooling1d_2 (MaxPooling  (None, 640, 532)         0         
 1D)                                                             
                                                                 
 dense (Dense)               (None, 640, 740)          394420    
                                                                 
 flatten (Flatten)           (None, 473600)            0         
                                                                 
 dropout_1 (Dropout)         (None, 473600)            0         
                                                                 
 dense_1 (Dense)             (None, 2)                 947202    
                                                                 
=================================================================
Total params: 7,477,482
Trainable params: 7,473,870
Non-trainable params: 3,612
_________________________________________________________________
None
cnn_1d best parameters is {'num_layers': 3, 'units_0': 762, 'kernel_0': 1, 'dropout_0': False, 'dense_unit_last': 740, 'dropout_last': True, 'lr': 1e-06, 'dropout_rate0': 0.1, 'units_1': 512, 'kernel_1': 15, 'dropout_1': True, 'dropout_rate_last': 0.1, 'units_2': 532, 'kernel_2': 1, 'dropout_2': False, 'dropout_rate1': 0.1, 'dropout_rate2': 0.9}
…
