…
59/59 - 2s - loss: 0.2459 - accuracy: 0.9032 - val_loss: 0.4396 - val_accuracy: 0.8852 - 2s/epoch - 38ms/step
[2K[2KTrial 18 Complete [00h 04m 18s]
val_loss: 0.3018758197625478

Best val_loss So Far: 0.3018758197625478
Total elapsed time: 00h 54m 53s
Model: "model"
_________________________________________________________________
 Layer (type)                Output Shape              Param #   
=================================================================
 input_1 (InputLayer)        [(None, 1024, 3)]         0         
                                                                 
 conv1d (Conv1D)             (None, 1024, 422)         19412     
                                                                 
 batch_normalization (BatchN  (None, 1024, 422)        1688      
 ormalization)                                                   
                                                                 
 re_lu (ReLU)                (None, 1024, 422)         0         
                                                                 
 max_pooling1d (MaxPooling1D  (None, 512, 422)         0         
 )                                                               
                                                                 
 conv1d_1 (Conv1D)           (None, 512, 2)            5910      
                                                                 
 batch_normalization_1 (Batc  (None, 512, 2)           8         
 hNormalization)                                                 
                                                                 
 re_lu_1 (ReLU)              (None, 512, 2)            0         
                                                                 
 max_pooling1d_1 (MaxPooling  (None, 256, 2)           0         
 1D)                                                             
                                                                 
 dropout (Dropout)           (None, 256, 2)            0         
                                                                 
 conv1d_2 (Conv1D)           (None, 256, 2)            38        
                                                                 
 batch_normalization_2 (Batc  (None, 256, 2)           8         
 hNormalization)                                                 
                                                                 
 re_lu_2 (ReLU)              (None, 256, 2)            0         
                                                                 
 max_pooling1d_2 (MaxPooling  (None, 128, 2)           0         
 1D)                                                             
                                                                 
 dense (Dense)               (None, 128, 2)            6         
                                                                 
 flatten (Flatten)           (None, 256)               0         
                                                                 
 dropout_1 (Dropout)         (None, 256)               0         
                                                                 
 dense_1 (Dense)             (None, 2)                 514       
                                                                 
=================================================================
Total params: 27,584
Trainable params: 26,732
Non-trainable params: 852
_________________________________________________________________
None
cnn_1d best parameters is {'num_layers': 3, 'units_0': 422, 'kernel_0': 15, 'dropout_0': False, 'dense_unit_last': 2, 'dropout_last': True, 'lr': 0.01, 'dropout_rate_last': 0.9, 'units_1': 2, 'kernel_1': 7, 'dropout_1': True, 'units_2': 2, 'kernel_2': 9, 'dropout_2': False, 'dropout_rate0': 0.1, 'dropout_rate1': 0.1, 'dropout_rate2': 0.1}
