…
465/465 - 6s - loss: 0.4363 - accuracy: 0.7918 - val_loss: 0.4163 - val_accuracy: 0.8324 - 6s/epoch - 13ms/step
[2K[2KTrial 18 Complete [00h 09m 59s]
val_loss: 0.3828478157520294

Best val_loss So Far: 0.3348836799462636
Total elapsed time: 02h 33m 50s
Model: "model"
_________________________________________________________________
 Layer (type)                Output Shape              Param #   
=================================================================
 input_1 (InputLayer)        [(None, 128, 3)]          0         
                                                                 
 conv1d (Conv1D)             (None, 128, 182)          8372      
                                                                 
 batch_normalization (BatchN  (None, 128, 182)         728       
 ormalization)                                                   
                                                                 
 re_lu (ReLU)                (None, 128, 182)          0         
                                                                 
 max_pooling1d (MaxPooling1D  (None, 64, 182)          0         
 )                                                               
                                                                 
 conv1d_1 (Conv1D)           (None, 64, 2)             366       
                                                                 
 batch_normalization_1 (Batc  (None, 64, 2)            8         
 hNormalization)                                                 
                                                                 
 re_lu_1 (ReLU)              (None, 64, 2)             0         
                                                                 
 max_pooling1d_1 (MaxPooling  (None, 32, 2)            0         
 1D)                                                             
                                                                 
 dropout (Dropout)           (None, 32, 2)             0         
                                                                 
 dense (Dense)               (None, 32, 2)             6         
                                                                 
 flatten (Flatten)           (None, 64)                0         
                                                                 
 dropout_1 (Dropout)         (None, 64)                0         
                                                                 
 dense_1 (Dense)             (None, 2)                 130       
                                                                 
=================================================================
Total params: 9,610
Trainable params: 9,242
Non-trainable params: 368
_________________________________________________________________
None
cnn_1d best parameters is {'num_layers': 2, 'units_0': 182, 'kernel_0': 15, 'dropout_0': False, 'dense_unit_last': 2, 'dropout_last': True, 'lr': 0.01, 'dropout_rate_last': 0.1, 'units_1': 2, 'kernel_1': 1, 'dropout_1': True, 'dropout_rate0': 0.1, 'dropout_rate1': 0.6, 'units_2': 762, 'kernel_2': 1, 'dropout_2': True}
…
