…
12/12 - 80s - loss: 0.2976 - accuracy: 0.8978 - val_loss: 0.8929 - val_accuracy: 0.4815 - 80s/epoch - 7s/step
[2K[2KTrial 18 Complete [00h 51m 01s]
val_loss: 0.6929240226745605

Best val_loss So Far: 0.34639036655426025
Total elapsed time: 16h 16m 43s
Model: "model"
_________________________________________________________________
 Layer (type)                Output Shape              Param #   
=================================================================
 input_1 (InputLayer)        [(None, 5120, 3)]         0         
                                                                 
 gru (GRU)                   (None, 5120, 762)         1753362   
                                                                 
 batch_normalization (BatchN  (None, 5120, 762)        3048      
 ormalization)                                                   
                                                                 
 re_lu (ReLU)                (None, 5120, 762)         0         
                                                                 
 max_pooling1d (MaxPooling1D  (None, 2560, 762)        0         
 )                                                               
                                                                 
 dropout (Dropout)           (None, 2560, 762)         0         
                                                                 
 gru_1 (GRU)                 (None, 2560, 2)           4596      
                                                                 
 batch_normalization_1 (Batc  (None, 2560, 2)          8         
 hNormalization)                                                 
                                                                 
 re_lu_1 (ReLU)              (None, 2560, 2)           0         
                                                                 
 max_pooling1d_1 (MaxPooling  (None, 1280, 2)          0         
 1D)                                                             
                                                                 
 dropout_1 (Dropout)         (None, 1280, 2)           0         
                                                                 
 gru_2 (GRU)                 (None, 1280, 2)           36        
                                                                 
 batch_normalization_2 (Batc  (None, 1280, 2)          8         
 hNormalization)                                                 
                                                                 
 re_lu_2 (ReLU)              (None, 1280, 2)           0         
                                                                 
 max_pooling1d_2 (MaxPooling  (None, 640, 2)           0         
 1D)                                                             
                                                                 
 dropout_2 (Dropout)         (None, 640, 2)            0         
                                                                 
 dense (Dense)               (None, 640, 98)           294       
                                                                 
 flatten (Flatten)           (None, 62720)             0         
                                                                 
 dropout_3 (Dropout)         (None, 62720)             0         
                                                                 
 dense_1 (Dense)             (None, 2)                 125442    
                                                                 
=================================================================
Total params: 1,886,794
Trainable params: 1,885,262
Non-trainable params: 1,532
_________________________________________________________________
None
GRU best parameters is {'num_layers': 3, 'units_0': 762, 'dropout_0': True, 'dense_unit_last': 98, 'dropout_last': True, 'lr': 1e-05, 'dropout_rate_last': 0.6, 'dropout_rate0': 0.1, 'units_1': 2, 'dropout_1': True, 'units_2': 2, 'dropout_2': True, 'dropout_rate1': 0.1, 'dropout_rate2': 0.1}
…
