…
233/233 - 14s - loss: 0.3067 - accuracy: 0.8676 - val_loss: 0.2783 - val_accuracy: 0.8787 - 14s/epoch - 61ms/step
[2K[2KTrial 18 Complete [01h 16m 57s]
val_loss: 0.24743247032165527

Best val_loss So Far: 0.24743247032165527
Total elapsed time: 09h 49m 35s
Model: "model"
_________________________________________________________________
 Layer (type)                Output Shape              Param #   
=================================================================
 input_1 (InputLayer)        [(None, 256, 3)]          0         
                                                                 
 gru (GRU)                   (None, 256, 762)          1753362   
                                                                 
 batch_normalization (BatchN  (None, 256, 762)         3048      
 ormalization)                                                   
                                                                 
 re_lu (ReLU)                (None, 256, 762)          0         
                                                                 
 max_pooling1d (MaxPooling1D  (None, 128, 762)         0         
 )                                                               
                                                                 
 dropout (Dropout)           (None, 128, 762)          0         
                                                                 
 gru_1 (GRU)                 (None, 128, 452)          1648896   
                                                                 
 batch_normalization_1 (Batc  (None, 128, 452)         1808      
 hNormalization)                                                 
                                                                 
 re_lu_1 (ReLU)              (None, 128, 452)          0         
                                                                 
 max_pooling1d_1 (MaxPooling  (None, 64, 452)          0         
 1D)                                                             
                                                                 
 gru_2 (GRU)                 (None, 64, 762)           2779776   
                                                                 
 batch_normalization_2 (Batc  (None, 64, 762)          3048      
 hNormalization)                                                 
                                                                 
 re_lu_2 (ReLU)              (None, 64, 762)           0         
                                                                 
 max_pooling1d_2 (MaxPooling  (None, 32, 762)          0         
 1D)                                                             
                                                                 
 dense (Dense)               (None, 32, 2)             1526      
                                                                 
 flatten (Flatten)           (None, 64)                0         
                                                                 
 dropout_1 (Dropout)         (None, 64)                0         
                                                                 
 dense_1 (Dense)             (None, 2)                 130       
                                                                 
=================================================================
Total params: 6,191,594
Trainable params: 6,187,642
Non-trainable params: 3,952
_________________________________________________________________
None
GRU best parameters is {'num_layers': 3, 'units_0': 762, 'dropout_0': True, 'dense_unit_last': 2, 'dropout_last': True, 'lr': 1e-05, 'dropout_rate0': 0.8, 'units_1': 452, 'dropout_1': False, 'units_2': 762, 'dropout_2': False, 'dropout_rate_last': 0.9, 'dropout_rate2': 0.1}
…
