…
59/59 - 12s - loss: 1.1158 - accuracy: 0.5570 - val_loss: 0.6992 - val_accuracy: 0.5444 - 12s/epoch - 201ms/step
[2K[2KTrial 18 Complete [00h 38m 06s]
val_loss: 0.43248531222343445

Best val_loss So Far: 0.3095717231432597
Total elapsed time: 04h 54m 23s
Model: "model"
_________________________________________________________________
 Layer (type)                Output Shape              Param #   
=================================================================
 input_1 (InputLayer)        [(None, 1024, 3)]         0         
                                                                 
 gru (GRU)                   (None, 1024, 762)         1753362   
                                                                 
 batch_normalization (BatchN  (None, 1024, 762)        3048      
 ormalization)                                                   
                                                                 
 re_lu (ReLU)                (None, 1024, 762)         0         
                                                                 
 max_pooling1d (MaxPooling1D  (None, 512, 762)         0         
 )                                                               
                                                                 
 gru_1 (GRU)                 (None, 512, 762)          3488436   
                                                                 
 batch_normalization_1 (Batc  (None, 512, 762)         3048      
 hNormalization)                                                 
                                                                 
 re_lu_1 (ReLU)              (None, 512, 762)          0         
                                                                 
 max_pooling1d_1 (MaxPooling  (None, 256, 762)         0         
 1D)                                                             
                                                                 
 gru_2 (GRU)                 (None, 256, 762)          3488436   
                                                                 
 batch_normalization_2 (Batc  (None, 256, 762)         3048      
 hNormalization)                                                 
                                                                 
 re_lu_2 (ReLU)              (None, 256, 762)          0         
                                                                 
 max_pooling1d_2 (MaxPooling  (None, 128, 762)         0         
 1D)                                                             
                                                                 
 dense (Dense)               (None, 128, 2)            1526      
                                                                 
 flatten (Flatten)           (None, 256)               0         
                                                                 
 dropout (Dropout)           (None, 256)               0         
                                                                 
 dense_1 (Dense)             (None, 2)                 514       
                                                                 
=================================================================
Total params: 8,741,418
Trainable params: 8,736,846
Non-trainable params: 4,572
_________________________________________________________________
None
GRU best parameters is {'num_layers': 3, 'units_0': 762, 'dropout_0': False, 'dense_unit_last': 2, 'dropout_last': True, 'lr': 1e-05, 'dropout_rate0': 0.9, 'units_1': 762, 'dropout_1': False, 'dropout_rate_last': 0.9, 'dropout_rate1': 0.9, 'units_2': 762, 'dropout_2': False}
…
