…
30/30 - 8s - loss: 0.1337 - accuracy: 0.9538 - val_loss: 1.0073 - val_accuracy: 0.7407 - 8s/epoch - 268ms/step
[2K[2KTrial 18 Complete [00h 16m 58s]
val_loss: 0.4469782809416453

Best val_loss So Far: 0.35478687286376953
Total elapsed time: 04h 58m 06s
Model: "model"
_________________________________________________________________
 Layer (type)                Output Shape              Param #   
=================================================================
 input_1 (InputLayer)        [(None, 2048, 3)]         0         
                                                                 
 gru (GRU)                   (None, 2048, 762)         1753362   
                                                                 
 batch_normalization (BatchN  (None, 2048, 762)        3048      
 ormalization)                                                   
                                                                 
 re_lu (ReLU)                (None, 2048, 762)         0         
                                                                 
 max_pooling1d (MaxPooling1D  (None, 1024, 762)        0         
 )                                                               
                                                                 
 gru_1 (GRU)                 (None, 1024, 2)           4596      
                                                                 
 batch_normalization_1 (Batc  (None, 1024, 2)          8         
 hNormalization)                                                 
                                                                 
 re_lu_1 (ReLU)              (None, 1024, 2)           0         
                                                                 
 max_pooling1d_1 (MaxPooling  (None, 512, 2)           0         
 1D)                                                             
                                                                 
 dense (Dense)               (None, 512, 768)          2304      
                                                                 
 flatten (Flatten)           (None, 393216)            0         
                                                                 
 dense_1 (Dense)             (None, 2)                 786434    
                                                                 
=================================================================
Total params: 2,549,752
Trainable params: 2,548,224
Non-trainable params: 1,528
_________________________________________________________________
None
GRU best parameters is {'num_layers': 2, 'units_0': 762, 'dropout_0': False, 'dense_unit_last': 768, 'dropout_last': False, 'lr': 1e-05, 'dropout_rate_last': 0.1, 'dropout_rate0': 0.1, 'units_1': 2, 'dropout_1': False}
…
